…
I0000 00:00:1774821128.390253 17640307 pluggable_device_factory.cc:305] Could not identify NUMA node of platform GPU ID 0, defaulting to 0. Your kernel may not have been built with NUMA support.
I0000 00:00:1774821128.391852 17640307 pluggable_device_factory.cc:271] Created TensorFlow device (/job:localhost/replica:0/task:0/device:GPU:0 with 0 MB memory) -> physical PluggableDevice (device: 0, name: METAL, pci bus id: <undefined>)
23:52:09 [INFO] engine.tf_model: Model: "CryptoLSTM"
┏━━━━━━━━━━━━━━━━━━━━━┳━━━━━━━━━━━━━━━━━━━┳━━━━━━━━━━━━┳━━━━━━━━━━━━━━━━━━━┓
┃ Layer (type)        ┃ Output Shape      ┃    Param # ┃ Connected to      ┃
┡━━━━━━━━━━━━━━━━━━━━━╇━━━━━━━━━━━━━━━━━━━╇━━━━━━━━━━━━╇━━━━━━━━━━━━━━━━━━━┩
│ price_sequence      │ (None, 60, 35)    │          0 │ -                 │
│ (InputLayer)        │                   │            │                   │
├─────────────────────┼───────────────────┼────────────┼───────────────────┤
│ lstm_1 (LSTM)       │ (None, 60, 64)    │     25,600 │ price_sequence[0… │
├─────────────────────┼───────────────────┼────────────┼───────────────────┤
│ bn_lstm1            │ (None, 60, 64)    │        256 │ lstm_1[0][0]      │
│ (BatchNormalizatio… │                   │            │                   │
├─────────────────────┼───────────────────┼────────────┼───────────────────┤
│ drop_lstm1          │ (None, 60, 64)    │          0 │ bn_lstm1[0][0]    │
│ (Dropout)           │                   │            │                   │
├─────────────────────┼───────────────────┼────────────┼───────────────────┤
│ lstm_2 (LSTM)       │ (None, 60, 32)    │     12,416 │ drop_lstm1[0][0]  │
├─────────────────────┼───────────────────┼────────────┼───────────────────┤
│ bn_lstm2            │ (None, 60, 32)    │        128 │ lstm_2[0][0]      │
│ (BatchNormalizatio… │                   │            │                   │
├─────────────────────┼───────────────────┼────────────┼───────────────────┤
│ attention           │ (None, 32)        │         92 │ bn_lstm2[0][0]    │
│ (AttentionLayer)    │                   │            │                   │
├─────────────────────┼───────────────────┼────────────┼───────────────────┤
│ dense_0 (Dense)     │ (None, 128)       │      4,224 │ attention[0][0]   │
├─────────────────────┼───────────────────┼────────────┼───────────────────┤
│ bn_dense_0          │ (None, 128)       │        512 │ dense_0[0][0]     │
│ (BatchNormalizatio… │                   │            │                   │
├─────────────────────┼───────────────────┼────────────┼───────────────────┤
│ drop_dense_0        │ (None, 128)       │          0 │ bn_dense_0[0][0]  │
│ (Dropout)           │                   │            │                   │
├─────────────────────┼───────────────────┼────────────┼───────────────────┤
│ dense_1 (Dense)     │ (None, 64)        │      8,256 │ drop_dense_0[0][… │
├─────────────────────┼───────────────────┼────────────┼───────────────────┤
│ bn_dense_1          │ (None, 64)        │        256 │ dense_1[0][0]     │
│ (BatchNormalizatio… │                   │            │                   │
├─────────────────────┼───────────────────┼────────────┼───────────────────┤
│ drop_dense_1        │ (None, 64)        │          0 │ bn_dense_1[0][0]  │
│ (Dropout)           │                   │            │                   │
├─────────────────────┼───────────────────┼────────────┼───────────────────┤
│ dense_2 (Dense)     │ (None, 32)        │      2,080 │ drop_dense_1[0][… │
├─────────────────────┼───────────────────┼────────────┼───────────────────┤
│ bn_dense_2          │ (None, 32)        │        128 │ dense_2[0][0]     │
│ (BatchNormalizatio… │                   │            │                   │
├─────────────────────┼───────────────────┼────────────┼───────────────────┤
│ drop_dense_2        │ (None, 32)        │          0 │ bn_dense_2[0][0]  │
│ (Dropout)           │                   │            │                   │
├─────────────────────┼───────────────────┼────────────┼───────────────────┤
│ dir_hidden_12h      │ (None, 32)        │      1,056 │ drop_dense_2[0][… │
│ (Dense)             │                   │            │                   │
├─────────────────────┼───────────────────┼────────────┼───────────────────┤
│ dir_hidden_1h       │ (None, 32)        │      1,056 │ drop_dense_2[0][… │
│ (Dense)             │                   │            │                   │
├─────────────────────┼───────────────────┼────────────┼───────────────────┤
│ dir_hidden_24h      │ (None, 32)        │      1,056 │ drop_dense_2[0][… │
│ (Dense)             │                   │            │                   │
├─────────────────────┼───────────────────┼────────────┼───────────────────┤
│ dir_hidden_6h       │ (None, 32)        │      1,056 │ drop_dense_2[0][… │
│ (Dense)             │                   │            │                   │
├─────────────────────┼───────────────────┼────────────┼───────────────────┤
│ mag_hidden_12h      │ (None, 32)        │      1,056 │ drop_dense_2[0][… │
│ (Dense)             │                   │            │                   │
├─────────────────────┼───────────────────┼────────────┼───────────────────┤
│ mag_hidden_1h       │ (None, 32)        │      1,056 │ drop_dense_2[0][… │
│ (Dense)             │                   │            │                   │
├─────────────────────┼───────────────────┼────────────┼───────────────────┤
│ mag_hidden_24h      │ (None, 32)        │      1,056 │ drop_dense_2[0][… │
│ (Dense)             │                   │            │                   │
├─────────────────────┼───────────────────┼────────────┼───────────────────┤
│ mag_hidden_6h       │ (None, 32)        │      1,056 │ drop_dense_2[0][… │
│ (Dense)             │                   │            │                   │
├─────────────────────┼───────────────────┼────────────┼───────────────────┤
│ dir_12h (Dense)     │ (None, 3)         │         99 │ dir_hidden_12h[0… │
├─────────────────────┼───────────────────┼────────────┼───────────────────┤
│ dir_1h (Dense)      │ (None, 3)         │         99 │ dir_hidden_1h[0]… │
├─────────────────────┼───────────────────┼────────────┼───────────────────┤
│ dir_24h (Dense)     │ (None, 3)         │         99 │ dir_hidden_24h[0… │
├─────────────────────┼───────────────────┼────────────┼───────────────────┤
│ dir_6h (Dense)      │ (None, 3)         │         99 │ dir_hidden_6h[0]… │
├─────────────────────┼───────────────────┼────────────┼───────────────────┤
│ mag_12h (Dense)     │ (None, 1)         │         33 │ mag_hidden_12h[0… │
├─────────────────────┼───────────────────┼────────────┼───────────────────┤
│ mag_1h (Dense)      │ (None, 1)         │         33 │ mag_hidden_1h[0]… │
├─────────────────────┼───────────────────┼────────────┼───────────────────┤
│ mag_24h (Dense)     │ (None, 1)         │         33 │ mag_hidden_24h[0… │
├─────────────────────┼───────────────────┼────────────┼───────────────────┤
│ mag_6h (Dense)      │ (None, 1)         │         33 │ mag_hidden_6h[0]… │
└─────────────────────┴───────────────────┴────────────┴───────────────────┘
 Total params: 62,924 (245.80 KB)
 Trainable params: 62,284 (243.30 KB)
 Non-trainable params: 640 (2.50 KB)

23:52:09 [INFO] engine.tf_model: Total params: 62,924
23:52:09 [INFO] engine.tf_model: Starting training: 100 epochs, batch_size=64
Epoch 1/100
2026-03-29 23:52:11.072439: I tensorflow/core/grappler/optimizers/custom_graph_optimizer_registry.cc:117] Plugin optimizer for device_type GPU is enabled.
…
